Simple_model_LeNet_Kaiming_Init/20210921/best_model.pth (torch, 248263 bytes, 10 tensors)

conv1.weight f4 [6, 3, 5, 5]
0	0xbdf2f65a	-0.11863394
1	0xbec6f8a7	-0.38861582
2	0xbea89f64	-0.32934105
3	0xbe59cb47	-0.2126895
4	0xbdcc9932	-0.09990157
5	0x3e1fc441	0.15602209
6	0xbd95cd24	-0.07314518
7	0xbe453ac4	-0.19260699
8	0x3d1e4f20	0.03864968
9	0xbe0cc4e8	-0.13746989
10	0x3e6b93a7	0.23005544
11	0xbdd9996a	-0.106249645
12	0xbd89781f	-0.067123644
13	0x3ca2c85d	0.019870931
14	0xbdaa4c1b	-0.08315297
15	0x3eb0f2ea	0.3456033
16	0x3e593d35	0.21214755
17	0x3e8632fc	0.26210773
18	0x3d957c41	0.0729909
19	0x3dac8d3d	0.084253766
20	0xbe7c633d	-0.24647231
21	0xbe75f533	-0.24019317
22	0xbec29390	-0.38003206
23	0xbe2b02a3	-0.16700225
24	0xbeb396bf	-0.35075948
25	0xbdeb39e4	-0.11485651
26	0x3da94fbc	0.08267161
27	0xbd94e3ee	-0.07270037
28	0xbda5b01a	-0.08090229
29	0xbe8884b3	-0.2666374
30	0x3cc1f26f	0.023675172
31	0x3c402ceb	0.011729459
32	0xbdc4ad01	-0.096033104
33	0x3e637aa3	0.22214751
34	0x3dc37b53	0.095450066
35	0x3f092b47	0.5358166
36	0x3f0010f0	0.50025845
37	0x3dcce066	0.10003738
38	0xbd17d173	-0.03706498
39	0x3e688b40	0.2270937
40	0x3ea41b6c	0.3205217
41	0x3eef68bb	0.4675959
42	0x3d9a9163	0.075472616
43	0xbd329267	-0.04359665
44	0xbd949dee	-0.07256685
45	0x3cec7025	0.028862068
46	0xbe179dca	-0.14806286
47	0x3d453ebf	0.048155542
48	0xbe6dd841	-0.23227026
49	0x3d6dadc5	0.058027048
50	0xbe9c8aa6	-0.3057453
51	0xbe8d6c76	-0.27621812
52	0x3d7ba65f	0.06143796
53	0x3c0043e0	0.007828683
54	0x3e665119	0.22491874
55	0x3d43a1d8	0.047761768
56	0xbd2d7651	-0.042349163
57	0x3c923566	0.017847728
58	0xbe3fd22f	-0.18732522
59	0xbd616b45	-0.05503394
60	0x3ef91a65	0.4865295
61	0x3ee86cac	0.4539541
62	0xbd23d7d1	-0.04000074
63	0xbd297cd1	-0.0413788
64	0x3d8dd2d4	0.06924978
65	0x3e7f5dc1	0.24938108
66	0x3e0ea308	0.13929379
67	0xbdf2faf7	-0.11864274
68	0xbc7ec07f	-0.015548824
69	0xbb7fe063	-0.0039043657
70	0x3db483c7	0.08814197
71	0x3d703ef0	0.058653772
72	0xbe21f436	-0.15815815
73	0x3dd25626	0.10270338
74	0xbe0d39c4	-0.13791567
75	0xbe25d2e3	-0.16193728
76	0xbccf3e0f	-0.025298147
77	0xbd2d0ef1	-0.042250577
78	0x3e09182b	0.13388126
79	0x3dcf0b4a	0.10109575
80	0xbd5088d0	-0.050911725
81	0x3de08d04	0.109643966
82	0x3ef63021	0.48083594
83	0xbf108b20	-0.5646229
84	0xbecf4b0f	-0.40486953
85	0xbe50e376	-0.2039927
86	0x3c021c98	0.007941388
87	0xbf08811b	-0.53322
88	0x3e7bc80b	0.24588029
89	0x3e7ba675	0.24575217
90	0x3ce42dce	0.027853873
91	0x3e0d059b	0.1377167
92	0x3cde9ddc	0.027174883
93	0x3ead950d	0.3390278
94	0xbf0312b7	-0.5120043
95	0xbd0f5599	-0.03499374
96	0xba773c15	-0.0009431255
97	0x3e38f5ac	0.18062466
98	0x3e4b75ab	0.19869106
99	0x3e908987	0.28229925
100	0x3e274022	0.16333058
101	0xbe62c6ac	-0.221461
102	0x3daab8bc	0.083360165
103	0x3caead32	0.02132282
104	0x3ef4907b	0.4776648
105	0xbde4c7a1	-0.11170889
106	0xbc6a8f60	-0.01431641
107	0x3e5b515b	0.21417753
108	0xbe988063	-0.2978545
109	0x3bab8d7e	0.005235373
110	0xbc9d2602	-0.019183163
111	0x3de1cc5d	0.11025307
112	0xbf148464	-0.5801451
113	0x3ef5d85f	0.4801664
114	0x3ebac949	0.36481693
115	0x3db2b053	0.087250374
116	0x3e45fee3	0.19335513
117	0xbd99bf58	-0.07507199
118	0xbd0aa055	-0.03384431
119	0xbec63f14	-0.3872
120	0xbd908caf	-0.07058083
121	0x3d258d45	0.04041793
122	0xbd95253a	-0.07282491
123	0xbe4025b1	-0.18764378
124	0x3d74b1c5	0.059739847
125	0x3e04d66e	0.12972423
126	0xbd3105bb	-0.043218356
127	0xbe71e3cb	-0.23622052
128	0x3d0b96e3	0.034079444
129	0x3dd0a8d3	0.10188451
130	0xbd9649b6	-0.07338278
131	0x3dbb73fe	0.09152983
132	0x3ef6ca61	0.48201278
133	0xbea4e001	-0.3220215
134	0xbeab9159	-0.3350933
135	0x3e9bc071	0.3042026
136	0xbd9ead6a	-0.0774792
137	0xbdb79ab7	-0.089650564
138	0x3ee937ed	0.4555048
139	0x3e8e3e30	0.2778182
140	0xbd4ffb19	-0.050776575
141	0xbd966014	-0.07342544
142	0xbe0a8dad	-0.13530608
143	0xbda5b04d	-0.08090267
144	0xbef1a453	-0.47195682
145	0xbe5b4a62	-0.21415094
146	0x3e5488ef	0.20755361
147	0xbde11078	-0.10989469
148	0xbe17d0e0	-0.14825773
149	0x3e1b944f	0.15193294
150	0x3e74d3b8	0.2390889
151	0xbe0b08ce	-0.13577577
152	0xbe1a8989	-0.15091528
153	0x3e1b59a9	0.15170921
154	0xbe8d0450	-0.27542353
155	0xbe90cefc	-0.28282917
156	0xbcacb7be	-0.021083709
157	0xbebe665a	-0.37187463
158	0x3e84cdc1	0.25938228
159	0xbc3fe526	-0.011712348
160	0x3d944b84	0.07240966
161	0x3ee1bfb0	0.44091558
162	0xbe810f28	-0.25206876
163	0x3d8e1d2c	0.06939158
164	0xbdb30090	-0.08740342
165	0xbe852936	-0.26008004
166	0xbe8ea43f	-0.27859685
167	0xbe90630d	-0.2820057
168	0xba291309	-0.0006449675
169	0xbe2d126f	-0.16901563
170	0xbe0ead43	-0.13933282
171	0x3e9d6c52	0.30746704
172	0xbe4a7a25	-0.19773157
173	0xbdb3303f	-0.087494366
174	0xbe045775	-0.12923987
175	0x3c06229b	0.0081869615
176	0xbda1fe20	-0.079097986
177	0xbe7afa12	-0.24509457
178	0x3d007289	0.03135923
179	0xbe2f5c5f	-0.1712508
180	0xbd4548ba	-0.04816506
181	0xbde97366	-0.11398964
182	0xbe49d194	-0.19708854
183	0x3e2d2436	0.16908345
184	0xbdfc67e3	-0.12324502
185	0xbe277613	-0.16353635
186	0x3e355f71	0.1771219
187	0xbdb8d9c9	-0.09025914
188	0xbec61707	-0.38689443
189	0xbdb0ba16	-0.08629243
190	0xbd4d82cb	-0.050173562
191	0xbe701c11	-0.23448206
192	0xbcc13a60	-0.023587406
193	0x3dc0491f	0.09388947
194	0x3ddd5ca6	0.10808687
195	0x3d583956	0.052789055
196	0x3e6a35bf	0.22872065
197	0xbef61cd4	-0.4806887
198	0x3ea8f7b6	0.33001488
199	0xbe28b11b	-0.1647381
200	0x3e73d6ad	0.23812361
201	0x3df828c8	0.121171534
202	0x3ea4d243	0.32191667
203	0x3e8a54b0	0.27017736
204	0xbe115e2b	-0.14196078
205	0xbe1fd4e7	-0.1560856
206	0x3eb1c020	0.34716892
207	0xbccc1512	-0.02491239
208	0x3c5ca6f9	0.013467544
209	0x3e032e9b	0.12810747
210	0xbe2d8415	-0.16944917
211	0x3ec9f390	0.39443636
212	0xbe1dd27d	-0.15412326
213	0x3e4c8015	0.19970734
214	0x3dc691cc	0.09695777
215	0xbdcdd36a	-0.1005009
216	0x3e9018d6	0.28143948
217	0x3df87ad0	0.121327996
218	0x3e50e5f4	0.2040022
219	0x3d6b6797	0.057471838
220	0xbe5addb3	-0.21373634
221	0x3eba53fb	0.36392197
222	0xbe9ed484	-0.31021512
223	0x3e9844b4	0.29739916
224	0xbdc292c9	-0.09500653
225	0x3da3df58	0.08001584
226	0x3e30436a	0.17213216
227	0x3e1b91a8	0.15192282
228	0x3e6fa6fd	0.23403545
229	0x3a36cb55	0.0006973048
230	0x3ea57a5c	0.32319915
231	0xbdb51a5e	-0.0884292
232	0xbdf167d7	-0.11787384
233	0x3bc7554c	0.006083166
234	0x3e35428d	0.17701168
235	0x3db4f2d4	0.08835378
236	0x3e28d898	0.16488874
237	0x3e57a802	0.21060184
238	0x3da74bfa	0.08168788
239	0x3eb80cfc	0.35947406
240	0xbda82303	-0.08209803
241	0x3e914d40	0.2837925
242	0xbdc080b0	-0.09399545
243	0xbe029ea8	-0.12755835
244	0x3e9f5266	0.31117553
245	0x3d83a2ad	0.06427512
246	0xbd912603	-0.07087328
247	0x3ca4bfdd	0.020111019
248	0x3e6df7fe	0.23239133
249	0xbc80f424	-0.015741415
250	0xbea82ed0	-0.32848215
251	0xbe80cdfe	-0.2515716
252	0xbea80b35	-0.3282105
253	0xbdbd4372	-0.0924138
254	0xbebe901e	-0.37219328
255	0xbea6fb35	-0.3261353

conv1.bias f4 [6]
0	0xbe385b5d	-0.18003602
1	0xbd42cdec	-0.047559664
2	0xbd91b7a2	-0.07115103
3	0xbec981a0	-0.3935671
4	0xbe8b069f	-0.2715349
5	0xbeae0e0a	-0.33995086

conv2.weight f4 [16, 6, 5, 5]
0	0xbe86f024	-0.26355088
1	0x3e2e9a96	0.17051157
2	0x3db39200	0.08768082
3	0xbd878bfc	-0.06618497
4	0xbd9fdd34	-0.07805863
5	0xbd048f93	-0.032363486
6	0xbc17e418	-0.00927069
7	0xbe9e8f8d	-0.30968896
8	0xbeb056dd	-0.3444127
9	0xbe8b8ffb	-0.27258286
10	0x3b437a7d	0.0029827647
11	0x3d60a0f3	0.054840993
12	0xbcddb2e4	-0.02706284
13	0x3dac3f22	0.08410479
14	0x3d1606a7	0.036627438
15	0x3c538568	0.0129102245
16	0xbe9968c0	-0.2996273
17	0xbd61403b	-0.054992896
18	0x3daf5b5d	0.08562348
19	0xbdf244ed	-0.11829553
20	0x3cd708a8	0.026249245
21	0xbe0df2ff	-0.13862227
22	0xbea84bf8	-0.3287046
23	0xbe828583	-0.25492486
24	0xbe9289f8	-0.28620887
25	0xbdee8d82	-0.11648084
26	0xbecbc3b9	-0.39797762
27	0xbe221ab3	-0.15830497
28	0xbe6ecf4c	-0.23321265
29	0xbe7cab06	-0.24674615
30	0xbe0e44b7	-0.138934
31	0x3e53b713	0.20675306
32	0xbe01daf8	-0.12681186
33	0xbe9c6751	-0.30547574
34	0xbdd0bf08	-0.10192686
35	0x3e176afd	0.14786907
36	0xbcc3590f	-0.023846177
37	0x3d94a836	0.07258646
38	0x3dadf2e8	0.08493596
39	0x3e8f3eb7	0.27977535
40	0x3de67a78	0.11253828
41	0x3be850e4	0.007089721
42	0x3e156fc4	0.14593416
43	0x3d1f97e9	0.038963232
44	0xbdbeebe8	-0.09322339
45	0xbdd65f01	-0.10467339
46	0xbe09248f	-0.13392852
47	0xbe54c898	-0.20779645
48	0xbe4c8682	-0.19973186
49	0x3d2e31ed	0.04252808
50	0xbd66a8b4	-0.05631323
51	0xbe8f4166	-0.27979583
52	0xbecceb10	-0.40023088
53	0xbd6e5608	-0.058187515
54	0x3d8d5e9d	0.06902812
55	0xbe67283d	-0.22573943
56	0xbcffe1b2	-0.03123555
57	0xbcebe090	-0.028793603
58	0xbd789d0a	-0.06069664
59	0xbbd6a6e2	-0.0065506557
60	0xbdb8646a	-0.090035275
61	0xbe5e207e	-0.21692082
62	0xbea55c5d	-0.3229703
63	0xbe56d73b	-0.20980541
64	0xbe6bde4e	-0.23034021
65	0x3ea83b56	0.3285777
66	0xbd1f7851	-0.038933102
67	0xbe4d7811	-0.20065333
68	0xbe955c71	-0.2917209
69	0xbe898754	-0.2686106
70	0x3d0699f3	0.03286166
71	0xbe3bce30	-0.18340373
72	0xbe24d18c	-0.16095561
73	0xbcabe39a	-0.020982552
74	0xbea1d81f	-0.316102
75	0x3e9a3e7b	0.30125794
76	0x3e17beac	0.1481883
77	0x3dd365b1	0.103221305
78	0xbdfb8198	-0.122805774
79	0xbe08caa5	-0.13358553
80	0x3e135e4b	0.14391439
81	0x3e51802f	0.20459054
82	0x3e452aa2	0.19254544
83	0x3d899b98	0.0671913
84	0x3da32838	0.079666555
85	0x3e5d40f1	0.21606804
86	0x3dde5fbb	0.10858103
87	0x3d31a010	0.043365538
88	0xbe4624dd	-0.1935
89	0xbe3a8e41	-0.18218328
90	0xbe3cd3e5	-0.18440206
91	0x3d86871f	0.06568741
92	0xbdcd2bd9	-0.10018129
93	0xbe0b2f9a	-0.13592377
94	0xbe47fd77	-0.19530283
95	0xbdd0a185	-0.101870574
96	0xbb6c3f90	-0.0036048628
97	0x3e019496	0.12654337
98	0x3e8597ac	0.2609228
99	0xbda551cc	-0.08072242
100	0x3e41d6f9	0.18929662
101	0xbd1f5b81	-0.038905624
102	0xbed927bd	-0.4241313
103	0xbdb903c3	-0.090339206
104	0xbe990be9	-0.298919
105	0x3df0d62a	0.117595986
106	0xbdfea32a	-0.12433465
107	0x3d4f4583	0.0506034
108	0x3cf7090a	0.030155677
109	0x3dcc320d	0.09970484
110	0xbd829b82	-0.06377317
111	0x3daa52ca	0.08316572
112	0xbd89125b	-0.06692954
113	0x3dac8133	0.0842308
114	0xbd2e8e57	-0.042616215
115	0x3e5d0497	0.21583782
116	0x3db6afaa	0.08920224
117	0x3e578956	0.21048483
118	0x3b109ec6	0.0022067293
119	0xbd302a5d	-0.04300915
120	0xbde68414	-0.11255661
121	0xbe753815	-0.23947175
122	0x3cff3735	0.031154254
123	0x3e807e9b	0.25096592
124	0x3d892b4c	0.06697711
125	0x3e44d8e6	0.19223365
126	0x3ec9a415	0.39382997
127	0xbe49e05b	-0.19714491
128	0xbe25e4c1	-0.16200544
129	0xbe017fc6	-0.12646398
130	0x3e802c9d	0.25034037
131	0xbec87e06	-0.39158648
132	0xbdf3b387	-0.118994765
133	0x3d8cfa24	0.06883648
134	0xbe6ee363	-0.23328929
135	0xbea8c0de	-0.32959646
136	0x3e854899	0.2603195
137	0x3ea31a20	0.3185587
138	0x3e2f226d	0.17102976
139	0x3de1d248	0.11026436
140	0x3d4a1843	0.049339544
141	0x3e175878	0.14779842
142	0x3d863cd9	0.065545745
143	0x3e8eb591	0.278729
144	0xbe38ad2f	-0.18034814
145	0xbeb19752	-0.3468576
146	0xbdea7749	-0.11448533
147	0xbdf9363f	-0.1216855
148	0xbe4350a4	-0.1907373
149	0x3e25e0d3	0.16199045
150	0xbdecb287	-0.11557489
151	0x3e86ea4f	0.26350638
152	0x3dfbe9cc	0.123004526
153	0xbe15b0f5	-0.14618285
154	0xbea046b0	-0.3130393
155	0x3e09adc5	0.13445194
156	0xbc859418	-0.016305968
157	0x3e2f150e	0.17097875
158	0x3e1f97b5	0.15585215
159	0xbeddf154	-0.4334818
160	0x3e07d26d	0.13263865
161	0xbd314b56	-0.043284737
162	0x3ec21040	0.37903023
163	0x3e8a6654	0.27031195
164	0xbf5bb75e	-0.8582667
165	0x3ec173e1	0.3778372
166	0x3d2a28a3	0.04154266
167	0x3e55e859	0.20889415
168	0xbd872e37	-0.06600612
169	0xbee44090	-0.44580507
170	0xbbaf01ae	-0.0053407764
171	0xbea6b38c	-0.32558858
172	0xbea92028	-0.33032346
173	0xbeeb5b2f	-0.45968005
174	0xbebf02e7	-0.37306902
175	0xbe1bee29	-0.1522757
176	0x3d2ae7c1	0.041724924
177	0x3d74acef	0.059735235
178	0x3d62ba3f	0.0553534
179	0x3e5edf0c	0.21764773
180	0x3d87353e	0.06601952
181	0x3e2cdea2	0.16881803
182	0x3df28d9d	0.11843417
183	0xbd0a5e21	-0.033781175
184	0xbdb90cc6	-0.090356395
185	0xbdd37c84	-0.10326484
186	0xbe76cae8	-0.2410084
187	0xbc24e090	-0.0100633055
188	0xbe47dbc0	-0.19517422
189	0x3d7e6437	0.06210729
190	0x3c10cd8b	0.008838068
191	0xbdf0a940	-0.11751032
192	0xbd90ac2c	-0.07064089
193	0xbe84852e	-0.25882858
194	0xbce50fc9	-0.027961629
195	0x3d5c6ab7	0.05381271
196	0xbe221d04	-0.15831381
197	0xbe630494	-0.22169715
198	0xbe89489a	-0.26813203
199	0xbdaf27cd	-0.08552513
200	0xbda1437e	-0.07874201
201	0xbe46ac98	-0.19401777
202	0x3de71346	0.11282973
203	0xbc80f3c4	-0.015741237
204	0xbe23933e	-0.15974137
205	0x3ca99b4a	0.02070393
206	0xbd8e0ffa	-0.06936641
207	0xbd235b10	-0.039881766
208	0xbbcae3cf	-0.0061917077
209	0xbe33fa8f	-0.1757605
210	0xbe3a0054	-0.18164188
211	0xbe435c4b	-0.19078176
212	0x3c716e56	0.014735779
213	0xbca133bd	-0.019677991
214	0x3d90bc9f	0.070672266
215	0xbe3e28f8	-0.18570316
216	0x3e36c2ee	0.17847797
217	0x3e2f54e1	0.17122222
218	0x3de3a688	0.11115748
219	0x3dc7379a	0.09727402
220	0x3e614a7e	0.22001073
221	0x3e3b15a2	0.18269971
222	0x3dbe49e5	0.09291438
223	0x3e4cf19a	0.20014039
224	0x3dc96490	0.09833634
225	0xbe72e986	-0.23721895
226	0xbea55312	-0.3228994
227	0x3dce378a	0.10069187
228	0xbe57d567	-0.210775
229	0x3e670631	0.22560956
230	0x3c9342c2	0.017976169
231	0xbd4b80ff	-0.049683567
232	0xbd94df57	-0.07269161
233	0xbdb90f68	-0.09036142
234	0x3e76dd15	0.24107774
235	0x3db655bb	0.089030705
236	0x3dfaf587	0.12253862
237	0xbe0fb135	-0.14032443
238	0xbd5a685e	-0.05332219
239	0xbc84d88e	-0.016216543
240	0x3d559f2d	0.052153755
241	0x3c84fa08	0.016232505
242	0x3df4718c	0.1193572
243	0xbd904a65	-0.0704544
244	0x3e49e4b3	0.19716148
245	0xbc931a07	-0.017956747
246	0x3d925d83	0.07146742
247	0x3d6024ed	0.054722715
248	0x3e7d97cf	0.24764942
249	0xbd2a980f	-0.04164892
250	0xbe4e218c	-0.20129985
251	0xbe359909	-0.1773416
252	0x3d951df4	0.07281104
253	0x3d35e793	0.0444103
254	0x3d5cb220	0.05388081
255	0xbd0d8c79	-0.034557793

conv2.bias f4 [16]
0	0x3e67c5a6	0.2263399
1	0x3dc3cb1a	0.09560223
2	0x3c0952bf	0.008381545
3	0xbe11cb67	-0.14237748
4	0xbb34749a	-0.002753532
5	0x3e599c2d	0.21250983
6	0xbe81dbf0	-0.25363111
7	0xbe15c879	-0.14627255
8	0x3e870beb	0.2637628
9	0xbdeddbba	-0.11614175
10	0x3d822c27	0.06356078
11	0x3e02320d	0.12714405
12	0x3e68515f	0.2268729
13	0xbe3f21cb	-0.18665235
14	0xbc9f2967	-0.019428922
15	0x3e80b5a2	0.25138575

fc1.weight f4 [120, 400]
0	0x3d0fdf6c	0.03512518
1	0x3db8072c	0.08985743
2	0x3c991381	0.018686058
3	0x3bd7d74b	0.006586944
4	0xbe6b7ce1	-0.22996856
5	0xbc934b71	-0.01798031
6	0x3ea8b89c	0.32953346
7	0x3da83d66	0.08214836
8	0xbdf473bd	-0.11936138
9	0x3cd174fb	0.025568476
10	0x3e304577	0.17213999
11	0x3e11f103	0.14252095
12	0xbae1fcac	-0.001724144
13	0x3d541cf0	0.05178541
14	0x3dbeb181	0.093112
15	0x3b7daddf	0.0038708372
16	0x3def71d5	0.116916336
17	0x3e389a05	0.18027504
18	0xbe440f51	-0.19146468
19	0xbdfe0f56	-0.12405269
20	0x3e4c4a27	0.19950162
21	0xbb9fd07b	-0.0048771477
22	0xbd01cbdc	-0.031688556
23	0xbe19de58	-0.15026224
24	0xbe2a496e	-0.16629574
25	0xbd491bc5	-0.04909875
26	0x3c067950	0.008207634
27	0x3ca052cf	0.019570736
28	0xbe1a6d75	-0.15080817
29	0xbdb0a7d3	-0.0862576
30	0xbe4ae997	-0.1981567
31	0xbdb9b683	-0.090680145
32	0x3d924b31	0.07143248
33	0xbc197858	-0.009367071
34	0xbe4ee897	-0.20205913
35	0xbcd5d4c9	-0.02610244
36	0x3e6f18d1	0.2334931
37	0x3d5bc14b	0.053651135
38	0xbcc57a27	-0.024106098
39	0xbd0e881e	-0.03479778
40	0x3d89e346	0.06732802
41	0x3d605376	0.054767095
42	0x3e4470f8	0.19183719
43	0x3c4ce93a	0.012506777
44	0x3d6acbd5	0.057323296
45	0x3e8a0246	0.2695486
46	0x3b665446	0.0035145446
47	0x3e599531	0.21248318
48	0x3dcbe743	0.09956219
49	0xbd7e02b6	-0.062014304
50	0x3de0ae4b	0.10970744
51	0x3e5cc402	0.21559146
52	0x3d384822	0.044990666
53	0x3b920121	0.004455701
54	0x3d2e2501	0.04251576
55	0x3dda26f4	0.10651961
56	0x3dba2a27	0.09090071
57	0xbb70ba72	-0.0036732224
58	0xbe2136ac	-0.15743512
59	0xbe05ffb2	-0.13085821
60	0xbd6daafe	-0.0580244
61	0xbdc71db3	-0.097224616
62	0xbe2eae0a	-0.17058578
63	0x3d634304	0.055483833
64	0xbdb50ffb	-0.08840939
65	0x3ad17352	0.0015979803
66	0x3d8224e4	0.063546926
67	0xbd242f64	-0.040084258
68	0x3a8fe051	0.0010976886
69	0xbbd7b60b	-0.0065829805
70	0xbd548e99	-0.051893804
71	0xbbeece7a	-0.0072877975
72	0x3d8d0bf6	0.06887047
73	0xbce4d45a	-0.027933288
74	0x3e014109	0.12622465
75	0x3e559896	0.20858988
76	0xbd0fe1b4	-0.035127357
77	0x3e2697a4	0.16268784
78	0xbc54b800	-0.012983322
79	0x3d743619	0.059621904
80	0x3dccdb6b	0.10002788
81	0x3e055481	0.13020517
82	0x3d847d3c	0.06469199
83	0xbd8f302e	-0.069916114
84	0xbe30ef5b	-0.17278807
85	0x3e5bde6e	0.21471569
86	0x3e521082	0.2051411
87	0x3d8b8ac1	0.068135746
88	0x3e7d5989	0.24741186
89	0xbe182c15	-0.14860566
90	0xbdc20f55	-0.094755806
91	0x3e10569c	0.14095539
92	0xbde15729	-0.110029526
93	0xbd43f74b	-0.04784326
94	0xbd1f64a0	-0.038914323
95	0xbe071ecc	-0.13195342
96	0x3c24b08e	0.01005186
97	0xbe4beafa	-0.19913855
98	0xbe23d1a7	-0.15997945
99	0xbd2c3d6d	-0.042050768
100	0xbeb770cd	-0.35828248
101	0xbdac0938	-0.08400196
102	0xbe689ce5	-0.227161
103	0xbd86e514	-0.06586662
104	0xbdb575a8	-0.08860332
105	0xbc3e6277	-0.011620156
106	0xbdc3f0ae	-0.095673904
107	0xbcbcddc8	-0.023054972
108	0xbcc669d8	-0.024220392
109	0x3d16471c	0.03668891
110	0xbe0db606	-0.13838968
111	0x3ccbcf71	0.02487919
112	0x3c787817	0.01516535
113	0x3e0338bd	0.12814613
114	0x3d36b94e	0.044610314
115	0xbcbf5dc5	-0.023360142
116	0x3d360c44	0.04444529
117	0xbd624527	-0.05524173
118	0x3e1b334d	0.15156288
119	0x3d88ebde	0.06685613
120	0xbe847833	-0.25872955
121	0xbc133e06	-0.0089869555
122	0xbe662b3e	-0.22477433
123	0x3c47e287	0.012200004
124	0x3e21ba53	0.15793733
125	0x3d0145de	0.03156077
126	0x3c1e93b3	0.009678769
127	0xbdfe95cc	-0.12430915
128	0xbd04f889	-0.032463584
129	0x3e517106	0.20453271
130	0x3e147b4c	0.14500159
131	0x3d9d8f12	0.07693304
132	0xbc9a037a	-0.018800486
133	0xbd9202af	-0.07129418
134	0xbe41ec95	-0.18937905
135	0x3cb68e46	0.022284638
136	0x3df81259	0.121128745
137	0x3e746884	0.23867995
138	0x3e9a6e89	0.30162457
139	0x3e07ed61	0.13274147
140	0xbda5f74d	-0.081038095
141	0x3d4abab2	0.049494453
142	0xbe233e69	-0.15941776
143	0x3dfd5f9a	0.1237175
144	0xbd9a2474	-0.07526484
145	0xbd35114a	-0.04420594
146	0xbd152f0d	-0.036421824
147	0xbc8ae5b9	-0.016955243
148	0xbb998c19	-0.0046858904
149	0xbd6bae91	-0.057539526
150	0xbe2dc88b	-0.16971032
151	0xbdf9cc65	-0.12197188
152	0xbda77fde	-0.081786856
153	0x3d80c9dd	0.06288502
154	0xbc99037f	-0.018678425
155	0x3db3c6ec	0.08778176
156	0x3e10952b	0.14119403
157	0x3d8c226e	0.068425044
158	0xbe0d21b5	-0.1378239
159	0x3e52db27	0.20591412
160	0x3e38b844	0.18039042
161	0xbd89aba7	-0.06722193
162	0xbe86da44	-0.26338398
163	0xbdbe9299	-0.09305305
164	0xbe0397c3	-0.12850861
165	0xb9fc1e9e	-0.00048087997
166	0xbc30e807	-0.010797507
167	0x385c6486	5.2545707e-05
168	0xbe2d87fa	-0.16946402
169	0x3dfea4a5	0.12433747
170	0xbe0587aa	-0.13040033
171	0x3d70b788	0.05876878
172	0x3b3afd79	0.002853243
173	0x3e8e166f	0.2775149
174	0x3cde2a34	0.027119733
175	0xbe05dbfa	-0.13072196
176	0xbde75eb9	-0.11297364
177	0x3d6aa929	0.05729023
178	0x3dbae575	0.09125797
179	0x3dce3e15	0.10070435
180	0xbd917aa9	-0.07103474
181	0x3de988a2	0.11403014
182	0xbc094d09	-0.008380183
183	0x3e8fe4a9	0.2810414
184	0xbd1d4849	-0.038399015
185	0xbe3235cf	-0.17403339
186	0x3e811394	0.2521025
187	0xbe21ac73	-0.1578844
188	0x3e4fce08	0.20293438
189	0x3dcf81a2	0.10132147
190	0x3dbb9985	0.09160141
191	0x3d83e162	0.06439473
192	0xbd83cc79	-0.064354844
193	0x3cdca5f7	0.026934607
194	0x3d84e1d0	0.06488383
195	0xbe2481cd	-0.1606514
196	0x3e2b2092	0.16711643
197	0xbda41bdb	-0.080131255
198	0x3e100d37	0.14067541
199	0x3cc28f75	0.023750046
200	0x3e0bd279	0.13654508
201	0xbd95e530	-0.07319105
202	0x3e7730dd	0.24139734
203	0x3dd2ab57	0.10286587
204	0x3db85e2c	0.09002337
205	0xbe8fa4e8	-0.280555
206	0x3e6b30e2	0.22967866
207	0xbe2e7019	-0.1703495
208	0x3b8b4ff2	0.0042514736
209	0x3dd4209f	0.103577845
210	0x3e6195af	0.22029756
211	0x3db52e20	0.08846688
212	0xbd356f1e	-0.044295423
213	0xbbf8fc6d	-0.007598451
214	0x3d32c625	0.043645997
215	0x3d12a942	0.035805948
216	0x3c5f012f	0.013611122
217	0x3e00b85c	0.12570328
218	0x3bd7bddb	0.006583912
219	0xbe1d164a	-0.15340534
220	0x3e20bc22	0.15696767
221	0xbd05ab42	-0.032634027
222	0x3d8d8bef	0.06911456
223	0x3effb64d	0.49943772
224	0x3b67f5f8	0.0035394412
225	0x3deae12e	0.11468731
226	0x3cbe21ba	0.023209441
227	0xbcf6b2a3	-0.030114478
228	0x3c4ac92c	0.012377065
229	0x3cd14f2c	0.025550447
230	0xbd407b7f	-0.046992775
231	0x3b374360	0.0027963743
232	0x3c155962	0.009115549
233	0xbd84cadd	-0.064840056
234	0xbd41231a	-0.047152616
235	0xbdfd08f8	-0.12355226
236	0x3d8378a6	0.06419496
237	0x3e124b88	0.14286625
238	0x3d88887a	0.06666656
239	0xbdecf843	-0.1157079
240	0xbe119595	-0.14217217
241	0xbd0fa837	-0.03507253
242	0xbc68521c	-0.014179733
243	0x3ccb61a9	0.024826841
244	0x3d50bf44	0.050963655
245	0xbc9171cb	-0.017754456
246	0xbd387b47	-0.04503944
247	0xbe37edee	-0.17961857
248	0x3e2f03fc	0.17091364
249	0x3e454fff	0.19268797
250	0x3d6178ec	0.05504696
251	0xbe1005d8	-0.14064729
252	0xbd38a96e	-0.045083456
253	0xbd9d4f00	-0.07681084
254	0x3d40729a	0.046984293
255	0x3beb4c2e	0.007180712

fc1.bias f4 [120]
0	0xbda4edea	-0.08053191
1	0xbe6af373	-0.22944431
2	0x3ea8a6f2	0.3293987
3	0xbbd185ea	-0.0063941376
4	0xbe628969	-0.2212273
5	0x3c74c1eb	0.014938812
6	0x3dc9e22b	0.09857591
7	0xbeaad494	-0.3336531
8	0xbcec9bf1	-0.028882952
9	0x3d1ce179	0.038300965
10	0xbd99d7de	-0.075118765
11	0xbcd4284c	-0.025898121
12	0x3e216e96	0.15764841
13	0xbe58a7e3	-0.21157794
14	0xbdbc7eae	-0.0920385
15	0xbca3168b	-0.01990821
16	0x3df07611	0.117412694
17	0x3ee1f1d9	0.44129828
18	0xbcb178ab	-0.021663984
19	0xbc0dc2d5	-0.008652409
20	0x3e992191	0.29908422
21	0xbe3fe80a	-0.1874086
22	0xbe8fa46b	-0.28055128
23	0xbe29b7c3	-0.16574006
24	0xbd2e91ec	-0.04261963
25	0xbe4ae6a5	-0.19814546
26	0xbe6fbe0b	-0.2341234
27	0xbc626003	-0.013816836
28	0xbe243280	-0.16034889
29	0xbe333daf	-0.17503999
30	0x3e96611c	0.29370964
31	0xbe1e34e7	-0.15449868
32	0xbe2c16b7	-0.1680554
33	0x3edf1ba2	0.4357577
34	0xbd23f895	-0.04003199
35	0xbe1a20b4	-0.15051538
36	0x3d83350f	0.064066045
37	0xbe5ef8a5	-0.21774538
38	0x3d0308fd	0.031990994
39	0x3cbd327f	0.023095367
40	0xbd0f164e	-0.03493338
41	0xbd50910b	-0.050919574
42	0xbe0ee937	-0.13956152
43	0x3cf62fec	0.030052148
44	0x3d1eaf33	0.0387413
45	0xbe5efa08	-0.21775067
46	0xbe435527	-0.19075452
47	0x3dd9ed20	0.10640931
48	0xbda5e714	-0.08100715
49	0xbeac6273	-0.3366886
50	0x3da2e9e9	0.07954771
51	0x3c6375d1	0.01388307
52	0x3dff215b	0.12457534
53	0x3e2f0ddd	0.17095132
54	0xbc612a78	-0.0137430355
55	0xbe4b5aaa	-0.19858804
56	0xbd1fb714	-0.038992956
57	0xbd482cc4	-0.048870817
58	0xbe900b18	-0.28133464
59	0xbec3ccad	-0.38242093
60	0xbd89cb41	-0.06728221
61	0x3e1d4a4f	0.15360378
62	0xbe08bd0c	-0.13353366
63	0x3dc87b5e	0.097891554
64	0xbdb070d8	-0.08615273
65	0xbea2cd21	-0.31797126
66	0x3e6006cd	0.21877594
67	0xbe3320e7	-0.1749302
68	0xbd8dd36b	-0.069250904
69	0xbea32cd5	-0.31870142
70	0x3e5406c1	0.20705701
71	0x3dc70069	0.09716875
72	0x3c55ee9e	0.013057379
73	0x3d93066f	0.071789615
74	0x3e101154	0.1406911
75	0x3e9194b0	0.28433752
76	0xbd5b4d41	-0.053540472
77	0xbd4c6f18	-0.049910635
78	0xbd57b574	-0.05266328
79	0xbcfeed0a	-0.031118888
80	0xbe09c667	-0.1345459
81	0xbe08575b	-0.13314573
82	0xbdf10e1a	-0.11770268
83	0xbe53f393	-0.20698385
84	0xbd9d7668	-0.076886
85	0x3e5a40f1	0.21313836
86	0xbe201809	-0.15634169
87	0xbd8c0815	-0.06837479
88	0xbe68f95d	-0.22751375
89	0x3eb16540	0.3464756
90	0x3d6f4169	0.05841199
91	0xbd883866	-0.06651382
92	0xbe9916a6	-0.29900092
93	0x3bffc0cf	0.007804967
94	0x3d9a8a5d	0.07545922
95	0xbe44f5cd	-0.1923439
96	0xbd8386ec	-0.06422219
97	0x3a5da09a	0.00084544125
98	0x3d59d6d5	0.053183395
99	0x3db3a6dd	0.08772061
100	0xbe46dd60	-0.19420385
101	0xbe6a7c03	-0.22898869
102	0xbe190146	-0.14941892
103	0xbe4b6eec	-0.19866532
104	0xbe4b8d5a	-0.1987814
105	0xbe3870f0	-0.18011832
106	0xbd206b57	-0.039164867
107	0x3e06e319	0.13172568
108	0xbd832971	-0.06404389
109	0xbe9a9c0d	-0.30197182
110	0xbe33b84e	-0.17550775
111	0x3de950df	0.11392378
112	0x3e9d7002	0.30749518
113	0xbc7d1087	-0.015445835
114	0xbe3c4e29	-0.1838919
115	0x3d1767ea	0.036964335
116	0xbdd0ded1	-0.10198749
117	0x3e6f63b2	0.23377874
118	0xbdc6431c	-0.09680769
119	0xbe60b79c	-0.21945041

fc2.weight f4 [84, 120]
0	0x3e364c64	0.17802578
1	0xbe15ace8	-0.1461674
2	0xbe838ff1	-0.25695756
3	0x3de94c9b	0.113915645
4	0x3c753ef3	0.014968622
5	0xbd29969a	-0.04140339
6	0x3c30b4c0	0.010785282
7	0x3efb1735	0.49041143
8	0x3d37aa96	0.044840418
9	0xbe1fcea7	-0.15606175
10	0x3e2c390e	0.1681864
11	0xbed7c2bd	-0.4214076
12	0xbe5f4c09	-0.21806349
13	0x3e1c923f	0.15290163
14	0x3ca9c4cb	0.020723721
15	0x3e74e416	0.23915133
16	0xbee47f3e	-0.44628328
17	0xbe5799db	-0.21054785
18	0xbdc6c03e	-0.09704636
19	0x3cff8eb3	0.031195974
20	0xbec17264	-0.37782586
21	0xbe974ae2	-0.2954932
22	0x3eb2ff92	0.3496061
23	0xbdbde3c3	-0.09271958
24	0xbeb4635d	-0.35232058
25	0x3e6f324c	0.2335903
26	0x3d11f729	0.0356361
27	0x3cb0b0ce	0.021568682
28	0x3da342fe	0.07971762
29	0x3e107267	0.14106141
30	0x3da7f830	0.08201635
31	0x3d976f46	0.073942706
32	0xbd93c8e6	-0.07216053
33	0xbe39a17e	-0.1812801
34	0x3e85df87	0.261471
35	0x3d2ac465	0.041691203
36	0xbd01cc34	-0.031688884
37	0x3e0b5ad5	0.13608868
38	0x3ddbf1d2	0.10739483
39	0xbefa845a	-0.489291
40	0x3e419f09	0.18908323
41	0xbea9c4a3	-0.33157834
42	0x3d998b09	0.07497222
43	0xbd1b7a36	-0.037958346
44	0xbe68bd65	-0.22728498
45	0x3dfc37be	0.123153195
46	0x3e7e04e5	0.24806555
47	0xbb2d69ec	-0.002646084
48	0xbc920f6d	-0.017829621
49	0xbe1cc6a2	-0.15310147
50	0xbe11a86b	-0.14224403
51	0x3db8651b	0.09003659
52	0xbd75a53a	-0.059972025
53	0x3caf3caa	0.021391232
54	0x3ec02389	0.3752711
55	0x3d190bfc	0.037364945
56	0xbd805405	-0.062660255
57	0xbdbb9b83	-0.09160521
58	0x3e8ff587	0.2811701
59	0x3da7f61e	0.0820124
60	0x3e4852e8	0.19562876
61	0xbeca9f7a	-0.39574796
62	0x3d6f97c9	0.058494363
63	0xbe382ef8	-0.17986667
64	0x3da4ac27	0.08040648
65	0xbe0e1d15	-0.13878281
66	0xbe2fb539	-0.17158975
67	0x3d3f58a9	0.046715412
68	0xbdff8cb3	-0.12478008
69	0x3d8aa9a3	0.06770637
70	0x3ce43f9e	0.027862366
71	0xbe1ed649	-0.15511431
72	0xbe18ee42	-0.14934638
73	0xbdd45f6e	-0.10369764
74	0x3d2cfe8c	0.042234942
75	0x3c7cc73e	0.015428362
76	0x3e63337d	0.2218761
77	0xbd9b5fc7	-0.075866275
78	0x3e3cdd16	0.18443713
79	0x3d9855a2	0.07438208
80	0xbe394f01	-0.18096544
81	0x3c6d2d7b	0.014476175
82	0xbd99f5cd	-0.07517586
83	0x3b4e5eda	0.0031489641
84	0x3d3c8c89	0.046032462
85	0xbe0298a2	-0.12753537
86	0xbe13c18c	-0.14429301
87	0x3daa2bdd	0.083091475
88	0xbde17cd5	-0.11010138
89	0x3dcaaf77	0.098967485
90	0xbe0d2905	-0.13785179
91	0xbe32f9da	-0.17478123
92	0x3e8824f9	0.26590708
93	0xbc8001d4	-0.015625872
94	0x3d620620	0.055181623
95	0xbe9e5d4f	-0.30930564
96	0xbe2f7efa	-0.17138281
97	0xbccdf1ac	-0.025139652
98	0x3dec4062	0.115357175
99	0xbe7101c4	-0.2353583
100	0xbe53581c	-0.2063908
101	0x3c7eaab6	0.01554363
102	0x3e570069	0.2099625
103	0x3d0f0836	0.03491994
104	0xbe577665	-0.21041258
105	0x3d84ad8a	0.064784124
106	0x3e2fff64	0.17187268
107	0xbe35cc0c	-0.17753619
108	0x3d32150f	0.043477114
109	0xbd13de20	-0.036100507
110	0xbde2ae51	-0.110684045
111	0x3cb8b0a8	0.022545174
112	0xbe6a1a20	-0.22861528
113	0xbc70e7d4	-0.01470371
114	0x3c64c111	0.013962046
115	0xbeb7d802	-0.35906988
116	0xbd5ef8a8	-0.054436356
117	0x3d81c01d	0.06335471
118	0x3dff0d23	0.124536775
119	0x3dba6e9d	0.09103129
120	0x3d36e3bb	0.044650774
121	0x3d9d4801	0.07679749
122	0xbe36d418	-0.17854345
123	0xbd912c99	-0.070885845
124	0x3d9202fc	0.071294755
125	0x3e6b957d	0.23006244
126	0x3cfc237d	0.03077864
127	0x3e4f8768	0.20266497
128	0x3d8d9fa4	0.06915215
129	0x3e29b656	0.16573462
130	0x3de3990d	0.111131765
131	0xbc44f721	-0.012021811
132	0x3d4da9cb	0.050210755
133	0xbda57d6a	-0.080805615
134	0x3dff3040	0.12460375
135	0x3dfd1029	0.12356598
136	0x3e43633d	0.19080825
137	0x3e698e04	0.22808081
138	0xbc2f936c	-0.0107163
139	0x3e530fc6	0.20611486
140	0x3d1b9972	0.037988134
141	0x3e8d407d	0.27588263
142	0x3e7ba852	0.24575928
143	0xbd9b87fb	-0.075942956
144	0xbec38ac4	-0.38191807
145	0xbe855a62	-0.2604552
146	0xbd707e68	-0.0587143
147	0xbcef0814	-0.029178657
148	0x3dc1e519	0.09467525
149	0xbc00831e	-0.007843761
150	0xbe03a1d2	-0.12854698
151	0x3edeb2a7	0.43495676
152	0xbdac1a00	-0.084033966
153	0x3dd8efaf	0.10592591
154	0x3e6ef88b	0.23336999
155	0x3d643774	0.055716947
156	0x3dbb73f1	0.091529734
157	0x3e7b050f	0.24513648
158	0xbe0d5068	-0.13800204
159	0x3c205585	0.009786014
160	0x3d628c32	0.055309482
161	0x3d633151	0.055466954
162	0x3dd03a57	0.101673774
163	0x3e234a5c	0.15946335
164	0xbe6fbdd9	-0.23412265
165	0xbde1889f	-0.110123865
166	0x3e8bfb44	0.27340138
167	0xbcdcfcc6	-0.026976
168	0x3db7e1d5	0.08978621
169	0xbe0a6095	-0.13513406
170	0x3e07f9ab	0.13278835
171	0x3e8c9575	0.27457777
172	0xbe9c2227	-0.30494806
173	0x3de870a4	0.113496095
174	0xbde93983	-0.113879226
175	0x3d834073	0.06408777
176	0x3de25d1b	0.11052915
177	0xbd00fecd	-0.031492997
178	0xbc16eb61	-0.009211392
179	0xbe5ff1b1	-0.21869542
180	0x3d9c4558	0.07630414
181	0xbd8e7e31	-0.06957663
182	0xbdd08f92	-0.10183634
183	0xbd3b59c5	-0.045739908
184	0x3e607fd6	0.21923766
185	0xbde60d7c	-0.11233041
186	0xbea37e69	-0.3193238
187	0xbd89d0ea	-0.067293
188	0x3d6c4a4a	0.057688035
189	0xbd1e48d8	-0.038643688
190	0xbdf59c92	-0.11992754
191	0xbe5e5c30	-0.21714854
192	0x3ef4c6b1	0.4780784
193	0xbe0d74ec	-0.13814133
194	0xbe89ff08	-0.26952386
195	0x3b7e79e9	0.0038829988
196	0x3ee791db	0.45228466
197	0x3e0c426d	0.13697214
198	0x3d85752d	0.0651649
199	0xbd7fb8ad	-0.06243198
200	0xbe122314	-0.14271194
201	0xbedf9d63	-0.43674764
202	0xbe9a4537	-0.30130932
203	0x3e9d6942	0.30744368
204	0xbe8ad43b	-0.27115044
205	0xbe9bfd31	-0.30466607
206	0x3da1be16	0.07897584
207	0x3d2d041a	0.04224024
208	0x3e82340d	0.25430337
209	0xbd2a2123	-0.041535508
210	0x3ec9dddb	0.39427075
211	0x3e8b871a	0.27251512
212	0x3ea1c6a5	0.31596866
213	0xbe825ab8	-0.25459838
214	0xbe6c8b4d	-0.23100014
215	0x3e0f5ee2	0.14001039
216	0x3e20132e	0.15632316
217	0x3d1b5353	0.03792126
218	0x3e82fcbe	0.25583452
219	0xbcf82396	-0.030290406
220	0x3e1e65fa	0.15468588
221	0x3e529553	0.20564775
222	0x3d3148e2	0.043282397
223	0x3eb6c80a	0.35699493
224	0x3e3f0d38	0.18657386
225	0xbdc8383e	-0.09776352
226	0x3d470de8	0.048597246
227	0xbe36cf28	-0.17852461
228	0x3e032cbb	0.12810032
229	0x3ea2ce72	0.3179813
230	0x3d454149	0.048157964
231	0x3d77f013	0.060531687
232	0xbe61fd68	-0.22069323
233	0xbd9aa2af	-0.07550561
234	0x3ebac512	0.36478478
235	0x3e61b7cc	0.22042769
236	0x3e9fda5f	0.3122129
237	0xbe26616d	-0.16248102
238	0x3e463de6	0.1935955
239	0x3e0756f2	0.13216761
240	0x3e0e7125	0.13910349
241	0xbe95bf8b	-0.29247698
242	0x3e344985	0.1760617
243	0xbda07343	-0.078344844
244	0xbeb3b273	-0.35097083
245	0xbe030fb4	-0.12798959
246	0x3d9f9f0c	0.07794008
247	0x3c9daa9f	0.019246398
248	0x3df0a993	0.11751094
249	0x3de25e81	0.110531814
250	0xbe2eb102	-0.1705971
251	0xbe82b772	-0.25530583
252	0xbe29112c	-0.16510457
253	0xbe1afa09	-0.15134443
254	0xbe01d7ce	-0.12679979
255	0x3b82d8bc	0.003993122

fc2.bias f4 [84]
0	0xbeac1a4e	-0.3361382
1	0xbea254d2	-0.31705338
2	0xbd92d92d	-0.07170329
3	0x3ec9cf12	0.39415795
4	0x3eb06048	0.34448457
5	0xbe6aa923	-0.22916083
6	0x3f226178	0.63429976
7	0xbedff539	-0.43741778
8	0xbe47d71a	-0.19515648
9	0xbe9393a2	-0.28823572
10	0x3ef9a9d4	0.4876238
11	0xbe637a11	-0.22214533
12	0x3ea4d7b1	0.3219581
13	0xbe1f3a1e	-0.15549514
14	0x3df9b8c5	0.12193445
15	0xbea3eb31	-0.32015374
16	0xbe2b0e96	-0.16704783
17	0x3f0f4b6f	0.5597448
18	0x3e919227	0.28431818
19	0xbea058b1	-0.31317666
20	0x3ebadb3d	0.3649539
21	0x3eaaf4b4	0.3338982
22	0xbe8c82f3	-0.27443656
23	0x3eacc037	0.33740398
24	0x3ef376fe	0.4755172
25	0x3d6886f7	0.056769338
26	0xbe3abc69	-0.18235935
27	0x3ef09799	0.4699066
28	0xbe699283	-0.22809796
29	0xbe1492cc	-0.14509124
30	0xbdf20d44	-0.118189365
31	0x3eb0c6b0	0.34526587
32	0xbe939e76	-0.28831834
33	0x3ef5f389	0.48037365
34	0x3eb209ea	0.3477319
35	0x3ea747c4	0.3267194
36	0xbe9d895b	-0.30768856
37	0xbe9d2c0a	-0.30697662
38	0x3c8fdaf6	0.017560463
39	0xbc4673e0	-0.012112588
40	0xbe3d8318	-0.1850704
41	0x3f0ccbef	0.5499868
42	0xbdb57569	-0.08860285
43	0xbeaf39da	-0.34223825
44	0xbe45f65e	-0.19332263
45	0x3e67fe41	0.22655584
46	0xbea2fe82	-0.318348
47	0xbe58b3b0	-0.21162295
48	0x3e9190eb	0.28430876
49	0x3ebf4356	0.3735606
50	0x3f1c7540	0.6111641
51	0xbd06eb81	-0.032939438
52	0xbe847b7d	-0.25875464
53	0x3f1dfa9f	0.6171054
54	0xbd99bbbc	-0.075065106
55	0x3f04be37	0.51852745
56	0xbea1538f	-0.31509063
57	0xbecfe7d8	-0.4060657
58	0xbdf38483	-0.11890509
59	0x3c2caa60	0.010538667
60	0x3ed7ab04	0.42122662
61	0x3e937c6c	0.28805864
62	0xbe097d80	-0.1342678
63	0xbe9e1788	-0.30877328
64	0x3e75290d	0.23941441
65	0xbd5765ea	-0.052587427
66	0x3d812d6b	0.06307491
67	0xbea77b33	-0.3271118
68	0xbe22a986	-0.1588498
69	0xbe9ca61f	-0.3059549
70	0x3f11075a	0.5665184
71	0xbe692f4f	-0.22771953
72	0xbe9eeff3	-0.31042442
73	0xbeb84ca0	-0.3599596
74	0xbea0c862	-0.3140288
75	0xbe51abf6	-0.20475754
76	0xbe2d16f0	-0.16903281
77	0xbe12d391	-0.14338519
78	0xbd843dac	-0.064570755
79	0xbe956f89	-0.29186657
80	0x3ed3b0eb	0.41345915
81	0x3ebce18d	0.36890832
82	0xbe6be29d	-0.23035665
83	0xbe91131a	-0.28334886

fc3.weight f4 [2, 84]
0	0xbe1ce0f2	-0.15320185
1	0x3d2d0f43	0.042250883
2	0x3dcc9437	0.09989207
3	0xbda873db	-0.08225223
4	0x3c4e0d47	0.012576408
5	0xbdab808e	-0.08374129
6	0x3e93b993	0.2885252
7	0xbe4ab62a	-0.19796053
8	0x3e1ac4f5	0.15114196
9	0x3d998216	0.07495515
10	0x3e205a5e	0.15659472
11	0xbe60ed12	-0.21965435
12	0x3d00330e	0.03129869
13	0xbdedbb63	-0.11608007
14	0xbe35623b	-0.17713253
15	0x3b5df1b7	0.0033865997
16	0x3d99748e	0.07492934
17	0x3d9273b0	0.07150972
18	0x3e1c4064	0.15258938
19	0x3dcef3de	0.10105108
20	0x3d3aedb3	0.045636844
21	0x3e895a2b	0.26826605
22	0xbd67b408	-0.056568176
23	0xbdbab304	-0.09116176
24	0x3e2367ad	0.15957518
25	0xbe37756e	-0.1791589
26	0xbd828fab	-0.06375059
27	0x3e4912c0	0.19636059
28	0x3b1bca32	0.002377164
29	0xbe73b200	-0.2379837
30	0xbe4c91ed	-0.19977541
31	0x3dfcc248	0.12341744
32	0xbdc4e549	-0.09614045
33	0x3e7de5e9	0.24794735
34	0x3e615917	0.22006641
35	0x3e0659b8	0.13120162
36	0xbc894d2e	-0.016760435
37	0x3d5939db	0.05303369
38	0x3db41eb6	0.0879492
39	0x3e99386b	0.29925856
40	0xbe010f09	-0.12603392
41	0xbd2554e0	-0.040364146
42	0xbce1e5ce	-0.0275754
43	0x3e04c838	0.12967002
44	0xbd25d431	-0.040485565
45	0x3e0cc93d	0.13748641
46	0xbd7422dd	-0.05960356
47	0xbe7b92d3	-0.24567728
48	0x3e8de502	0.27713782
49	0x3cd08843	0.0254556
50	0x3d20a73f	0.039222
51	0xbe2cb952	-0.16867569
52	0xbd28fc7b	-0.04125641
53	0x3e2bc2f3	0.16773586
54	0xbe94888e	-0.29010433
55	0x3dae75ae	0.08518539
56	0x3dedec62	0.11617352
57	0x3e055f0b	0.13024537
58	0x3e5baef7	0.21453463
59	0x3d8dcbb9	0.06923623
60	0xbb98155e	-0.004641219
61	0x3db3f4a2	0.087868944
62	0x3da2737f	0.079321854
63	0x3d3a14b2	0.045429893
64	0xbb87fb51	-0.0041498323
65	0x3d81d8d8	0.06340188
66	0xbe3eddc4	-0.18639284
67	0xbdc70ff3	-0.09719839
68	0x3c8e3826	0.017360758
69	0x3d5a848e	0.05334907
70	0x3ec78ab3	0.38973007
71	0x3e2df571	0.1698816
72	0x3dd281fc	0.10278699
73	0xbdb1229d	-0.0864918
74	0xbe9ef5da	-0.31046945
75	0x3dc13173	0.0943326
76	0x3df53994	0.11973873
77	0xbc447490	-0.011990681
78	0x3d51e1f9	0.051240895
79	0x3e1dd6de	0.15413997
80	0x3d21a4a0	0.03946364
81	0x3c9b7f3b	0.018981567
82	0x3c2280ea	0.009918431
83	0xbe1d04d5	-0.15333875
84	0xbd21c070	-0.039490163
85	0x3d828d27	0.06374579
86	0x3e0221bd	0.12708183
87	0xbe3ed9d6	-0.18637785
88	0xbe419a0c	-0.1890642
89	0xbd9ead6a	-0.0774792
90	0xbe7dffd2	-0.24804619
91	0xbc36e0f1	-0.011162029
92	0x3e4602cc	0.19337004
93	0x3e0867bc	0.13320822
94	0xbe7e8442	-0.2485514
95	0xbe7f9d0d	-0.24962254
96	0x3c2cf34e	0.010556055
97	0xbc28c92e	-0.010301871
98	0xbe8039de	-0.2504415
99	0x3cad02ff	0.021119593
100	0x3e46dcda	0.19420186
101	0xbe8ccd55	-0.27500406
102	0xbbdc37e0	-0.006720528
103	0x3e905523	0.28189954
104	0xbe337ad3	-0.17527322
105	0xbe1f440c	-0.15553302
106	0x3dee2f74	0.11630145
107	0xbe054da2	-0.13017896
108	0xbdc7901a	-0.09744282
109	0xbe2a4a88	-0.16629994
110	0xbd5c3505	-0.0537615
111	0xbe06e213	-0.13172178
112	0xbc7c600a	-0.015403757
113	0xbda895da	-0.08231707
114	0x3ded4167	0.1158474
115	0xbe074241	-0.13208868
116	0x3cce9588	0.025217786
117	0x3da22236	0.079166815
118	0x3d0ce7b9	0.034400675
119	0xbe31b192	-0.17352894
120	0x3d658360	0.056033492
121	0x3d436dee	0.04771226
122	0x3ebee4ce	0.3728394
123	0x3d22d532	0.0397541
124	0x3de7c12b	0.11316141
125	0xbe8e03d0	-0.27737284
126	0x3e8a42d9	0.27004126
127	0x3e0bdd8b	0.1365873
128	0xbda45fcb	-0.080260836
129	0x3dbeadb7	0.09310477
130	0x3e3326a9	0.17495216
131	0x3d01bdbb	0.03167508
132	0x3e3413cd	0.17585678
133	0xbe6151b5	-0.22003825
134	0xbe9a1f55	-0.3010203
135	0x3dded3b8	0.10880226
136	0x3e28cbfd	0.16484065
137	0xbe39d1ae	-0.18146393
138	0x3e534039	0.20629968
139	0xbe560519	-0.20900382
140	0x3e6e1092	0.23248509
141	0x3e66a88d	0.22525235
142	0xbe39cafb	-0.18143837
143	0x3d3870f3	0.04502959
144	0xbe367f96	-0.17822108
145	0x3d72a070	0.059235036
146	0x3e48d1c8	0.19611275
147	0x3e0c85e6	0.13722953
148	0xbe16ea90	-0.14737916
149	0x3d3f4f74	0.04670663
150	0xbe204c88	-0.15654194
151	0xbe2c1ac4	-0.16807085
152	0x3e0177da	0.12643376
153	0x3dc9add6	0.0984761
154	0xbe0d6d71	-0.1381128
155	0x3e3668d5	0.17813428
156	0x3e46f485	0.19429214
157	0xbd754b28	-0.059886128
158	0x3e2b3a0e	0.16721365
159	0x3dcbd635	0.09952966
160	0x3e45b058	0.19305551
161	0x3d0c513d	0.034257162
162	0x3e3e84fa	0.18605414
163	0x3e34ccbf	0.1765623
164	0xbdb54333	-0.08850708
165	0xbe10b245	-0.14130504
166	0x3e379421	0.179276
167	0xbe01830e	-0.1264765

fc3.bias f4 [2]
0	0x3ec01f39	0.3752382
1	0xbec020ea	-0.3752511
